…
000 [00:43<00:00, 9559.24 examples/s]Map: 100%|â–ˆâ–ˆâ–ˆâ–ˆâ–ˆâ–ˆâ–ˆâ–ˆâ–ˆâ–‰| 394000/395000 [00:43<00:00, 9534.74 examples/s]Map: 100%|â–ˆâ–ˆâ–ˆâ–ˆâ–ˆâ–ˆâ–ˆâ–ˆâ–ˆâ–ˆ| 395000/395000 [00:44<00:00, 9612.78 examples/s]Map: 100%|â–ˆâ–ˆâ–ˆâ–ˆâ–ˆâ–ˆâ–ˆâ–ˆâ–ˆâ–ˆ| 395000/395000 [00:44<00:00, 8969.46 examples/s]
11/12/2024 10:04:34 - INFO - __main__ - Dataset({
    features: ['query', 'response', 'type', 'original_question', 'prompt', 'prefix'],
    num_rows: 395000
})
11/12/2024 10:04:34 - INFO - __main__ - ImplicitTransBridge(
  (llm): Qwen2ForCausalLM(
    (model): Qwen2Model(
      (embed_tokens): Embedding(152064, 3584)
      (layers): ModuleList(
        (0-27): 28 x Qwen2DecoderLayer(
          (self_attn): Qwen2SdpaAttention(
            (q_proj): Linear(in_features=3584, out_features=3584, bias=True)
            (k_proj): Linear(in_features=3584, out_features=512, bias=True)
            (v_proj): Linear(in_features=3584, out_features=512, bias=True)
            (o_proj): Linear(in_features=3584, out_features=3584, bias=False)
            (rotary_emb): Qwen2RotaryEmbedding()
          )
          (mlp): Qwen2MLP(
            (gate_proj): Linear(in_features=3584, out_features=18944, bias=False)
            (up_proj): Linear(in_features=3584, out_features=18944, bias=False)
            (down_proj): Linear(in_features=18944, out_features=3584, bias=False)
            (act_fn): SiLU()
          )
          (input_layernorm): Qwen2RMSNorm((3584,), eps=1e-06)
          (post_attention_layernorm): Qwen2RMSNorm((3584,), eps=1e-06)
        )
      )
      (norm): Qwen2RMSNorm((3584,), eps=1e-06)
    )
    (lm_head): Linear(in_features=3584, out_features=152064, bias=False)
  )
  (llm_embedding_layer): Embedding(152064, 3584)
  (mt_model): MT5Model(
    (shared): Embedding(250112, 1024)
    (encoder): MT5Stack(
      (embed_tokens): Embedding(250112, 1024)
      (block): ModuleList(
        (0): MT5Block(
          (layer): ModuleList(
            (0): MT5LayerSelfAttention(
              (SelfAttention): MT5Attention(
                (q): Linear(in_features=1024, out_features=1024, bias=False)
                (k): Linear(in_features=1024, out_features=1024, bias=False)
                (v): Linear(in_features=1024, out_features=1024, bias=False)
                (o): Linear(in_features=1024, out_features=1024, bias=False)
                (relative_attention_bias): Embedding(32, 16)
              )
              (layer_norm): MT5LayerNorm()
              (dropout): Dropout(p=0.1, inplace=False)
            )
            (1): MT5LayerFF(
              (DenseReluDense): MT5DenseGatedActDense(
                (wi_0): Linear(in_features=1024, out_features=2816, bias=False)
                (wi_1): Linear(in_features=1024, out_features=2816, bias=False)
                (wo): Linear(in_features=2816, out_features=1024, bias=False)
                (dropout): Dropout(p=0.1, inplace=False)
                (act): NewGELUActivation()
              )
              (layer_norm): MT5LayerNorm()
              (dropout): Dropout(p=0.1, inplace=False)
            )
          )
        )
        (1-23): 23 x MT5Block(
          (layer): ModuleList(
            (0): MT5LayerSelfAttention(
              (SelfAttention): MT5Attention(
                (q): Linear(in_features=1024, out_features=1024, bias=False)
                (k): Linear(in_features=1024, out_features=1024, bias=False)
                (v): Linear(in_features=1024, out_features=1024, bias=False)
                (o): Linear(in_features=1024, out_features=1024, bias=False)
              )
              (layer_norm): MT5LayerNorm()
              (dropout): Dropout(p=0.1, inplace=False)
            )
            (1): MT5LayerFF(
              (DenseReluDense): MT5DenseGatedActDense(
                (wi_0): Linear(in_features=1024, out_features=2816, bias=False)
                (wi_1): Linear(in_features=1024, out_features=2816, bias=False)
                (wo): Linear(in_features=2816, out_features=1024, bias=False)
                (dropout): Dropout(p=0.1, inplace=False)
                (act): NewGELUActivation()
              )
              (layer_norm): MT5LayerNorm()
              (dropout): Dropout(p=0.1, inplace=False)
            )
          )
        )
      )
      (final_layer_norm): MT5LayerNorm()
      (dropout): Dropout(p=0.1, inplace=False)
    )
    (decoder): MT5Stack(
      (embed_tokens): Embedding(250112, 1024)
      (block): ModuleList(
        (0): MT5Block(
          (layer): ModuleList(
            (0): MT5LayerSelfAttention(
              (SelfAttention): MT5Attention(
                (q): Linear(in_features=1024, out_features=1024, bias=False)
                (k): Linear(in_features=1024, out_features=1024, bias=False)
                (v): Linear(in_features=1024, out_features=1024, bias=False)
                (o): Linear(in_features=1024, out_features=1024, bias=False)
                (relative_attention_bias): Embedding(32, 16)
              )
              (layer_norm): MT5LayerNorm()
              (dropout): Dropout(p=0.1, inplace=False)
            )
            (1): MT5LayerCrossAttention(
              (EncDecAttention): MT5Attention(
                (q): Linear(in_features=1024, out_features=1024, bias=False)
                (k): Linear(in_features=1024, out_features=1024, bias=False)
                (v): Linear(in_features=1024, out_features=1024, bias=False)
                (o): Linear(in_features=1024, out_features=1024, bias=False)
              )
              (layer_norm): MT5LayerNorm()
              (dropout): Dropout(p=0.1, inplace=False)
            )
            (2): MT5LayerFF(
              (DenseReluDense): MT5DenseGatedActDense(
                (wi_0): Linear(in_features=1024, out_features=2816, bias=False)
                (wi_1): Linear(in_features=1024, out_features=2816, bias=False)
                (wo): Linear(in_features=2816, out_features=1024, bias=False)
                (dropout): Dropout(p=0.1, inplace=False)
                (act): NewGELUActivation()
              )
              (layer_norm): MT5LayerNorm()
              (dropout): Dropout(p=0.1, inplace=False)
            )
          )
        )
        (1-23): 23 x MT5Block(
          (layer): ModuleList(
            (0): MT5LayerSelfAttention(
              (SelfAttention): MT5Attention(
                (q): Linear(in_features=1024, out_features=1024, bias=False)
                (k): Linear(in_features=1024, out_features=1024, bias=False)
                (v): Linear(in_features=1024, out_features=1024, bias=False)
                (o): Linear(in_features=1024, out_features=1024, bias=False)
              )
              (layer_norm): MT5LayerNorm()
              (dropout): Dropout(p=0.1, inplace=False)
            )
            (1): MT5LayerCrossAttention(
              (EncDecAttention): MT5Attention(
                (q): Linear(in_features=1024, out_features=1024, bias=False)
                (k): Linear(in_features=1024, out_features=1024, bias=False)
                (v): Linear(in_features=1024, out_features=1024, bias=False)
                (o): Linear(in_features=1024, out_features=1024, bias=False)
              )
              (layer_norm): MT5LayerNorm()
              (dropout): Dropout(p=0.1, inplace=False)
            )
            (2): MT5LayerFF(
              (DenseReluDense): MT5DenseGatedActDense(
                (wi_0): Linear(in_features=1024, out_features=2816, bias=False)
                (wi_1): Linear(in_features=1024, out_features=2816, bias=False)
                (wo): Linear(in_features=2816, out_features=1024, bias=False)
                (dropout): Dropout(p=0.1, inplace=False)
                (act): NewGELUActivation()
              )
              (layer_norm): MT5LayerNorm()
              (dropout): Dropout(p=0.1, inplace=False)
            )
          )
        )
      )
      (final_layer_norm): MT5LayerNorm()
      (dropout): Dropout(p=0.1, inplace=False)
    )
  )
  (slm_a): MT5Stack(
    (embed_tokens): Embedding(250112, 1024)
    (block): ModuleList(
      (0): MT5Block(
        (layer): ModuleList(
          (0): MT5LayerSelfAttention(
            (SelfAttention): MT5Attention(
              (q): Linear(in_features=1024, out_features=1024, bias=False)
              (k): Linear(in_features=1024, out_features=1024, bias=False)
              (v): Linear(in_features=1024, out_features=1024, bias=False)
              (o): Linear(in_features=1024, out_features=1024, bias=False)
              (relative_attention_bias): Embedding(32, 16)
            )
            (layer_norm): MT5LayerNorm()
            (dropout): Dropout(p=0.1, inplace=False)
          )
          (1): MT5LayerFF(
            (DenseReluDense): MT5DenseGatedActDense(
              (wi_0): Linear(in_features=1024, out_features=2816, bias=False)
              (wi_1): Linear(in_features=1024, out_features=2816, bias=False)
              (wo): Linear(in_features=2816, out_features=1024, bias=False)
              (dropout): Dropout(p=0.1, inplace=False)
              (act): NewGELUActivation()
            )
            (layer_norm): MT5LayerNorm()
            (dropout): Dropout(p=0.1, inplace=False)
          )
        )
      )
      (1-23): 23 x MT5Block(
        (layer): ModuleList(
          (0): MT5LayerSelfAttention(
            (SelfAttention): MT5Attention(
              (q): Linear(in_features=1024, out_features=1024, bias=False)
              (k): Linear(in_features=1024, out_features=1024, bias=False)
              (v): Linear(in_features=1024, out_features=1024, bias=False)
              (o): Linear(in_features=1024, out_features=1024, bias=False)
            )
            (layer_norm): MT5LayerNorm()
            (dropout): Dropout(p=0.1, inplace=False)
          )
          (1): MT5LayerFF(
            (DenseReluDense): MT5DenseGatedActDense(
              (wi_0): Linear(in_features=1024, out_features=2816, bias=False)
              (wi_1): Linear(in_features=1024, out_features=2816, bias=False)
              (wo): Linear(in_features=2816, out_features=1024, bias=False)
              (dropout): Dropout(p=0.1, inplace=False)
              (act): NewGELUActivation()
            )
            (layer_norm): MT5LayerNorm()
            (dropout): Dropout(p=0.1, inplace=False)
          )
        )
      )
    )
    (final_layer_norm): MT5LayerNorm()
    (dropout): Dropout(p=0.1, inplace=False)
  )
  (mapping_a): Mapping(
    (mlp): MLP(
      (linear1): Linear(in_features=1024, out_features=2048, bias=True)
      (linear2): Linear(in_features=2048, out_features=3584, bias=True)
      (relu): ReLU()
    )
  )
)
11/12/2024 10:04:34 - INFO - __main__ - trainable params: 9446400 || all params: 8598529536 || trainable%: 0.1099
11/12/2024 10:04:34 - WARNING - accelerate.utils.other - Detected kernel version 4.19.90, which is below the recommended minimum of 5.5.0; this can cause the process to hang. It is recommended to upgrade the kernel to the minimum version or higher.
…
