…
00, 42011.54 examples/s]Map:  98%|█████████▊| 980000/1000000 [00:25<00:00, 37918.82 examples/s]Map:  99%|█████████▊| 986000/1000000 [00:25<00:00, 41776.94 examples/s]Map:  99%|█████████▉| 992000/1000000 [00:25<00:00, 37475.27 examples/s]Map: 100%|█████████▉| 998000/1000000 [00:25<00:00, 41762.06 examples/s]Map: 100%|██████████| 1000000/1000000 [00:25<00:00, 39182.83 examples/s]
10/21/2024 05:43:08 - INFO - __main__ - Dataset({
    features: ['src', 'tgt', 'prompt'],
    num_rows: 1000000
})
10/21/2024 05:43:08 - INFO - __main__ - ImplicitTransBridge(
  (llm): Qwen2Model(
    (embed_tokens): Embedding(152064, 3584)
    (layers): ModuleList(
      (0-27): 28 x Qwen2DecoderLayer(
        (self_attn): Qwen2SdpaAttention(
          (q_proj): Linear(in_features=3584, out_features=3584, bias=True)
          (k_proj): Linear(in_features=3584, out_features=512, bias=True)
          (v_proj): Linear(in_features=3584, out_features=512, bias=True)
          (o_proj): Linear(in_features=3584, out_features=3584, bias=False)
          (rotary_emb): Qwen2RotaryEmbedding()
        )
        (mlp): Qwen2MLP(
          (gate_proj): Linear(in_features=3584, out_features=18944, bias=False)
          (up_proj): Linear(in_features=3584, out_features=18944, bias=False)
          (down_proj): Linear(in_features=18944, out_features=3584, bias=False)
          (act_fn): SiLU()
        )
        (input_layernorm): Qwen2RMSNorm((3584,), eps=1e-06)
        (post_attention_layernorm): Qwen2RMSNorm((3584,), eps=1e-06)
      )
    )
    (norm): Qwen2RMSNorm((3584,), eps=1e-06)
    (rotary_emb): Qwen2RotaryEmbedding()
  )
  (llm_embedding_layer): Embedding(152064, 3584)
  (slm_b): Qwen2ForCausalLM(
    (model): Qwen2Model(
      (embed_tokens): Embedding(151936, 896)
      (layers): ModuleList(
        (0-23): 24 x Qwen2DecoderLayer(
          (self_attn): Qwen2SdpaAttention(
            (q_proj): Linear(in_features=896, out_features=896, bias=True)
            (k_proj): Linear(in_features=896, out_features=128, bias=True)
            (v_proj): Linear(in_features=896, out_features=128, bias=True)
            (o_proj): Linear(in_features=896, out_features=896, bias=False)
            (rotary_emb): Qwen2RotaryEmbedding()
          )
          (mlp): Qwen2MLP(
            (gate_proj): Linear(in_features=896, out_features=4864, bias=False)
            (up_proj): Linear(in_features=896, out_features=4864, bias=False)
            (down_proj): Linear(in_features=4864, out_features=896, bias=False)
            (act_fn): SiLU()
          )
          (input_layernorm): Qwen2RMSNorm((896,), eps=1e-06)
          (post_attention_layernorm): Qwen2RMSNorm((896,), eps=1e-06)
        )
      )
      (norm): Qwen2RMSNorm((896,), eps=1e-06)
      (rotary_emb): Qwen2RotaryEmbedding()
    )
    (lm_head): Linear(in_features=896, out_features=151936, bias=False)
  )
  (mapping_b): Mapping(
    (mlp): MLP(
      (linear1): Linear(in_features=3584, out_features=1792, bias=True)
      (linear2): Linear(in_features=1792, out_features=896, bias=True)
      (relu): ReLU()
    )
  )
  (slm_b_embedding_layer): Embedding(151936, 896)
)
10/21/2024 05:43:08 - INFO - __main__ - trainable params: 502064512 || all params: 7572683648 || trainable%: 6.6299
10/21/2024 05:43:08 - WARNING - accelerate.utils.other - Detected kernel version 4.19.90, which is below the recommended minimum of 5.5.0; this can cause the process to hang. It is recommended to upgrade the kernel to the minimum version or higher.
[INFO|trainer.py:667] 2024-10-21 05:43:13,266 >> Using auto half precision backend
…
