…
[00:38<00:00, 10754.18 examples/s]Map:  99%|â–ˆâ–ˆâ–ˆâ–ˆâ–ˆâ–ˆâ–ˆâ–ˆâ–ˆâ–‰| 392000/395000 [00:38<00:00, 10865.08 examples/s]Map: 100%|â–ˆâ–ˆâ–ˆâ–ˆâ–ˆâ–ˆâ–ˆâ–ˆâ–ˆâ–‰| 394000/395000 [00:39<00:00, 10243.30 examples/s]Map: 100%|â–ˆâ–ˆâ–ˆâ–ˆâ–ˆâ–ˆâ–ˆâ–ˆâ–ˆâ–ˆ| 395000/395000 [00:39<00:00, 10063.97 examples/s]
11/09/2024 09:47:10 - INFO - __main__ - Dataset({
    features: ['query', 'response', 'type', 'original_question', 'prompt', 'prefix'],
    num_rows: 395000
})
11/09/2024 09:47:10 - INFO - __main__ - ImplicitTransBridge(
  (llm): Qwen2ForCausalLM(
    (model): Qwen2Model(
      (embed_tokens): Embedding(152064, 3584)
      (layers): ModuleList(
        (0-27): 28 x Qwen2DecoderLayer(
          (self_attn): Qwen2SdpaAttention(
            (q_proj): Linear(in_features=3584, out_features=3584, bias=True)
            (k_proj): Linear(in_features=3584, out_features=512, bias=True)
            (v_proj): Linear(in_features=3584, out_features=512, bias=True)
            (o_proj): Linear(in_features=3584, out_features=3584, bias=False)
            (rotary_emb): Qwen2RotaryEmbedding()
          )
          (mlp): Qwen2MLP(
            (gate_proj): Linear(in_features=3584, out_features=18944, bias=False)
            (up_proj): Linear(in_features=3584, out_features=18944, bias=False)
            (down_proj): Linear(in_features=18944, out_features=3584, bias=False)
            (act_fn): SiLU()
          )
          (input_layernorm): Qwen2RMSNorm((3584,), eps=1e-06)
          (post_attention_layernorm): Qwen2RMSNorm((3584,), eps=1e-06)
        )
      )
      (norm): Qwen2RMSNorm((3584,), eps=1e-06)
    )
    (lm_head): Linear(in_features=3584, out_features=152064, bias=False)
  )
  (llm_embedding_layer): Embedding(152064, 3584)
  (slm_a): XLMRobertaModel(
    (embeddings): XLMRobertaEmbeddings(
      (word_embeddings): Embedding(250002, 768, padding_idx=1)
      (position_embeddings): Embedding(514, 768, padding_idx=1)
      (token_type_embeddings): Embedding(1, 768)
      (LayerNorm): LayerNorm((768,), eps=1e-05, elementwise_affine=True)
      (dropout): Dropout(p=0.1, inplace=False)
    )
    (encoder): XLMRobertaEncoder(
      (layer): ModuleList(
        (0-11): 12 x XLMRobertaLayer(
          (attention): XLMRobertaAttention(
            (self): XLMRobertaSelfAttention(
              (query): Linear(in_features=768, out_features=768, bias=True)
              (key): Linear(in_features=768, out_features=768, bias=True)
              (value): Linear(in_features=768, out_features=768, bias=True)
              (dropout): Dropout(p=0.1, inplace=False)
            )
            (output): XLMRobertaSelfOutput(
              (dense): Linear(in_features=768, out_features=768, bias=True)
              (LayerNorm): LayerNorm((768,), eps=1e-05, elementwise_affine=True)
              (dropout): Dropout(p=0.1, inplace=False)
            )
          )
          (intermediate): XLMRobertaIntermediate(
            (dense): Linear(in_features=768, out_features=3072, bias=True)
            (intermediate_act_fn): GELUActivation()
          )
          (output): XLMRobertaOutput(
            (dense): Linear(in_features=3072, out_features=768, bias=True)
            (LayerNorm): LayerNorm((768,), eps=1e-05, elementwise_affine=True)
            (dropout): Dropout(p=0.1, inplace=False)
          )
        )
      )
    )
    (pooler): XLMRobertaPooler(
      (dense): Linear(in_features=768, out_features=768, bias=True)
      (activation): Tanh()
    )
  )
  (mapping_a): Mapping(
    (mlp): MLP(
      (linear1): Linear(in_features=768, out_features=1536, bias=True)
      (linear2): Linear(in_features=1536, out_features=3584, bias=True)
      (relu): ReLU()
    )
  )
)
11/09/2024 09:47:10 - INFO - __main__ - trainable params: 6693376 || all params: 7900353536 || trainable%: 0.0847
11/09/2024 09:47:10 - WARNING - accelerate.utils.other - Detected kernel version 4.19.90, which is below the recommended minimum of 5.5.0; this can cause the process to hang. It is recommended to upgrade the kernel to the minimum version or higher.
…
